…
2021-06-13 00:52:28 CRITICAL model_train_error_pct = 1.4982 %
2021-06-13 00:52:29 CRITICAL model_val_error_pct = 7.0333 %
2021-06-13 00:52:30 CRITICAL model_test_error_pct = 8.3100 %
2021-06-13 00:52:30 CRITICAL Best model saved
2021-06-13 00:52:30 DEBUG    Model: "initial_hyper_model"
2021-06-13 00:52:30 DEBUG    _________________________________________________________________
2021-06-13 00:52:30 DEBUG    Layer (type)                 Output Shape              Param #   
2021-06-13 00:52:30 DEBUG    =================================================================
2021-06-13 00:52:30 DEBUG    conv1 (Conv2D)               (None, 28, 28, 160)       1440      
2021-06-13 00:52:30 DEBUG    _________________________________________________________________
2021-06-13 00:52:30 DEBUG    conv1_bn (BatchNormalization (None, 28, 28, 160)       640       
2021-06-13 00:52:30 DEBUG    _________________________________________________________________
2021-06-13 00:52:30 DEBUG    activation (Activation)      (None, 28, 28, 160)       0         
2021-06-13 00:52:30 DEBUG    _________________________________________________________________
2021-06-13 00:52:30 DEBUG    maxpool1 (MaxPooling2D)      (None, 14, 14, 160)       0         
2021-06-13 00:52:30 DEBUG    _________________________________________________________________
2021-06-13 00:52:30 DEBUG    conv2 (Conv2D)               (None, 14, 14, 64)        92160     
2021-06-13 00:52:30 DEBUG    _________________________________________________________________
2021-06-13 00:52:30 DEBUG    conv2_bn (BatchNormalization (None, 14, 14, 64)        256       
2021-06-13 00:52:30 DEBUG    _________________________________________________________________
2021-06-13 00:52:30 DEBUG    activation_1 (Activation)    (None, 14, 14, 64)        0         
2021-06-13 00:52:30 DEBUG    _________________________________________________________________
2021-06-13 00:52:30 DEBUG    maxpool2 (MaxPooling2D)      (None, 7, 7, 64)          0         
2021-06-13 00:52:30 DEBUG    _________________________________________________________________
2021-06-13 00:52:30 DEBUG    conv3 (Conv2D)               (None, 7, 7, 96)          55296     
2021-06-13 00:52:30 DEBUG    _________________________________________________________________
2021-06-13 00:52:30 DEBUG    conv3_bn (BatchNormalization (None, 7, 7, 96)          384       
2021-06-13 00:52:30 DEBUG    _________________________________________________________________
2021-06-13 00:52:30 DEBUG    activation_2 (Activation)    (None, 7, 7, 96)          0         
2021-06-13 00:52:30 DEBUG    _________________________________________________________________
2021-06-13 00:52:30 DEBUG    maxpool3 (MaxPooling2D)      (None, 3, 3, 96)          0         
2021-06-13 00:52:30 DEBUG    _________________________________________________________________
2021-06-13 00:52:30 DEBUG    flatten (Flatten)            (None, 864)               0         
2021-06-13 00:52:30 DEBUG    _________________________________________________________________
2021-06-13 00:52:30 DEBUG    dense1 (Dense)               (None, 384)               331776    
2021-06-13 00:52:30 DEBUG    _________________________________________________________________
2021-06-13 00:52:30 DEBUG    dense1_bn (BatchNormalizatio (None, 384)               1536      
2021-06-13 00:52:30 DEBUG    _________________________________________________________________
2021-06-13 00:52:30 DEBUG    activation_3 (Activation)    (None, 384)               0         
2021-06-13 00:52:30 DEBUG    _________________________________________________________________
2021-06-13 00:52:30 DEBUG    output (Dense)               (None, 10)                3850      
2021-06-13 00:52:30 DEBUG    =================================================================
2021-06-13 00:52:30 DEBUG    Total params: 487,338
2021-06-13 00:52:30 DEBUG    Trainable params: 485,930
2021-06-13 00:52:30 DEBUG    Non-trainable params: 1,408
2021-06-13 00:52:30 DEBUG    _________________________________________________________________
2021-06-13 00:52:30 INFO     ==================================================
